{"format": "torch", "nodes": [{"name": "critic1_target", "id": 140099836126736, "class_name": "Critic(\n  (fc1): Linear(in_features=4, out_features=256, bias=True)\n  (fc2): Linear(in_features=256, out_features=256, bias=True)\n  (fc3): Linear(in_features=256, out_features=1, bias=True)\n)", "parameters": [["fc1.weight", [256, 4]], ["fc1.bias", [256]], ["fc2.weight", [256, 256]], ["fc2.bias", [256]], ["fc3.weight", [1, 256]], ["fc3.bias", [1]]], "output_shape": [[2560, 1]], "num_parameters": [1024, 256, 65536, 256, 256, 1]}, {"name": "critic2_target", "id": 140099836127760, "class_name": "Critic(\n  (fc1): Linear(in_features=4, out_features=256, bias=True)\n  (fc2): Linear(in_features=256, out_features=256, bias=True)\n  (fc3): Linear(in_features=256, out_features=1, bias=True)\n)", "parameters": [["fc1.weight", [256, 4]], ["fc1.bias", [256]], ["fc2.weight", [256, 256]], ["fc2.bias", [256]], ["fc3.weight", [1, 256]], ["fc3.bias", [1]]], "output_shape": [[2560, 1]], "num_parameters": [1024, 256, 65536, 256, 256, 1]}, {"name": "critic1", "id": 140099836010256, "class_name": "Critic(\n  (fc1): Linear(in_features=4, out_features=256, bias=True)\n  (fc2): Linear(in_features=256, out_features=256, bias=True)\n  (fc3): Linear(in_features=256, out_features=1, bias=True)\n)", "parameters": [["fc1.weight", [256, 4]], ["fc1.bias", [256]], ["fc2.weight", [256, 256]], ["fc2.bias", [256]], ["fc3.weight", [1, 256]], ["fc3.bias", [1]]], "output_shape": [[256, 1]], "num_parameters": [1024, 256, 65536, 256, 256, 1]}, {"name": "critic2", "id": 140099836007504, "class_name": "Critic(\n  (fc1): Linear(in_features=4, out_features=256, bias=True)\n  (fc2): Linear(in_features=256, out_features=256, bias=True)\n  (fc3): Linear(in_features=256, out_features=1, bias=True)\n)", "parameters": [["fc1.weight", [256, 4]], ["fc1.bias", [256]], ["fc2.weight", [256, 256]], ["fc2.bias", [256]], ["fc3.weight", [1, 256]], ["fc3.bias", [1]]], "output_shape": [[256, 1]], "num_parameters": [1024, 256, 65536, 256, 256, 1]}], "edges": []}